Model: "sequential"
_________________________________________________________________
 Layer (type)                Output Shape              Param #   
=================================================================
 conv2d (Conv2D)             (None, 1, 6000, 32)       416       
                                                                 
 max_pooling2d (MaxPooling2D  (None, 1, 3000, 32)      0         
 )                                                               
                                                                 
 conv2d_1 (Conv2D)           (None, 1, 3000, 64)       8256      
                                                                 
 max_pooling2d_1 (MaxPooling  (None, 1, 1500, 64)      0         
 2D)                                                             
                                                                 
 conv2d_2 (Conv2D)           (None, 1, 1500, 128)      32896     
                                                                 
 max_pooling2d_2 (MaxPooling  (None, 1, 750, 128)      0         
 2D)                                                             
                                                                 
 conv2d_3 (Conv2D)           (None, 1, 750, 256)       131328    
                                                                 
 max_pooling2d_3 (MaxPooling  (None, 1, 375, 256)      0         
 2D)                                                             
                                                                 
 flatten (Flatten)           (None, 96000)             0         
                                                                 
 dense (Dense)               (None, 1024)              98305024  
                                                                 
 dropout (Dropout)           (None, 1024)              0         
                                                                 
 dense_1 (Dense)             (None, 1)                 1025      
                                                                 
=================================================================
Total params: 98,478,945
Trainable params: 98,478,945
Non-trainable params: 0
_________________________________________________________________
model info save COMPLETE!
Total data number is 101437, Data processing took 0:00:45.
8115 for training, 1015 for validation, 1015 for test.
…
