Model: "sequential"
_________________________________________________________________
Layer (type)                 Output Shape              Param #   
=================================================================
conv2d (Conv2D)              (None, 1, 6000, 32)       416       
_________________________________________________________________
max_pooling2d (MaxPooling2D) (None, 1, 3000, 32)       0         
_________________________________________________________________
conv2d_1 (Conv2D)            (None, 1, 3000, 64)       8256      
_________________________________________________________________
max_pooling2d_1 (MaxPooling2 (None, 1, 1500, 64)       0         
_________________________________________________________________
flatten (Flatten)            (None, 96000)             0         
_________________________________________________________________
dense (Dense)                (None, 1024)              98305024  
_________________________________________________________________
dropout (Dropout)            (None, 1024)              0         
_________________________________________________________________
dense_1 (Dense)              (None, 101)               103525    
=================================================================
Total params: 98,417,221
Trainable params: 98,417,221
Non-trainable params: 0
_________________________________________________________________
model info save COMPLETE!
Total data number is 101437, Data processing took 0:00:43.
learning rate = 0.0001 epoch = 20
Learning started. It takes sometime.
Epoch: 1 loss = 0.73580879 train MAE = 5.0367km test MAE = 4.4278km
…
