…
2022-07-06 16:07:26.097105: W tensorflow/core/framework/cpu_allocator_impl.cc:80] Allocation of 5842728000 exceeds 10% of free system memory.

Tensorflow 2.4.1
Create New model folder
[PhysicalDevice(name='/physical_device:GPU:0', device_type='GPU'), PhysicalDevice(name='/physical_device:GPU:1', device_type='GPU')]
# GPU selected!
Total data number is 101437
Data processing took 0:00:45
Model: "sequential"
_________________________________________________________________
Layer (type)                 Output Shape              Param #   
=================================================================
conv2d (Conv2D)              (None, 1, 6000, 32)       416       
_________________________________________________________________
max_pooling2d (MaxPooling2D) (None, 1, 3000, 32)       0         
_________________________________________________________________
conv2d_1 (Conv2D)            (None, 1, 3000, 64)       8256      
_________________________________________________________________
max_pooling2d_1 (MaxPooling2 (None, 1, 1500, 64)       0         
_________________________________________________________________
conv2d_2 (Conv2D)            (None, 1, 1500, 128)      32896     
_________________________________________________________________
max_pooling2d_2 (MaxPooling2 (None, 1, 750, 128)       0         
_________________________________________________________________
conv2d_3 (Conv2D)            (None, 1, 750, 256)       131328    
_________________________________________________________________
max_pooling2d_3 (MaxPooling2 (None, 1, 375, 256)       0         
_________________________________________________________________
flatten (Flatten)            (None, 96000)             0         
_________________________________________________________________
dense (Dense)                (None, 1024)              98305024  
_________________________________________________________________
dropout (Dropout)            (None, 1024)              0         
_________________________________________________________________
dense_1 (Dense)              (None, 101)               103525    
=================================================================
Total params: 98,581,445
Trainable params: 98,581,445
Non-trainable params: 0
_________________________________________________________________
model info save COMPLETE!
Learning started. It takes sometime.
Random Selected Index : [62615, 73791, 62117, 59481]
Random Selected Index : [16053, 5007, 3969, 18735]
Epoch: 1 loss = 0.71666616 train MAE = 4.5278km test MAE = 3.9788km
…
