Model: "sequential"
_________________________________________________________________
Layer (type)                 Output Shape              Param #   
=================================================================
conv2d (Conv2D)              (None, 1, 6000, 32)       416       
_________________________________________________________________
max_pooling2d (MaxPooling2D) (None, 1, 3000, 32)       0         
_________________________________________________________________
conv2d_1 (Conv2D)            (None, 1, 3000, 64)       8256      
_________________________________________________________________
max_pooling2d_1 (MaxPooling2 (None, 1, 1500, 64)       0         
_________________________________________________________________
conv2d_2 (Conv2D)            (None, 1, 1500, 128)      32896     
_________________________________________________________________
max_pooling2d_2 (MaxPooling2 (None, 1, 750, 128)       0         
_________________________________________________________________
conv2d_3 (Conv2D)            (None, 1, 750, 256)       131328    
_________________________________________________________________
max_pooling2d_3 (MaxPooling2 (None, 1, 375, 256)       0         
_________________________________________________________________
flatten (Flatten)            (None, 96000)             0         
_________________________________________________________________
dense (Dense)                (None, 1024)              98305024  
_________________________________________________________________
dropout (Dropout)            (None, 1024)              0         
_________________________________________________________________
dense_1 (Dense)              (None, 1001)              1026025   
=================================================================
Total params: 99,503,945
Trainable params: 99,503,945
Non-trainable params: 0
_________________________________________________________________
model info save COMPLETE!
Total data number is 101437, Data processing took 0:11:24.
learning rate = 0.0001 epoch = 20
Learning started. It takes sometime.
Epoch: 1 loss = 0.84838617 train accuracy = 0.3555 test accuracy = 0.3860 train MAE = 5.2281km test MAE = 4.4181km
…
