Model: "model"
__________________________________________________________________________________________________
Layer (type)                    Output Shape         Param #     Connected to                     
==================================================================================================
input_1 (InputLayer)            [(None, 1, 6000, 3)] 0                                            
__________________________________________________________________________________________________
conv2d (Conv2D)                 (None, 1, 6000, 64)  832         input_1[0][0]                    
__________________________________________________________________________________________________
conv2d_1 (Conv2D)               (None, 1, 6000, 64)  16448       conv2d[0][0]                     
__________________________________________________________________________________________________
max_pooling2d (MaxPooling2D)    (None, 1, 3000, 64)  0           conv2d_1[0][0]                   
__________________________________________________________________________________________________
conv2d_2 (Conv2D)               (None, 1, 3000, 128) 32896       max_pooling2d[0][0]              
__________________________________________________________________________________________________
conv2d_3 (Conv2D)               (None, 1, 3000, 128) 65664       conv2d_2[0][0]                   
__________________________________________________________________________________________________
max_pooling2d_1 (MaxPooling2D)  (None, 1, 1500, 128) 0           conv2d_3[0][0]                   
__________________________________________________________________________________________________
conv2d_4 (Conv2D)               (None, 1, 1500, 256) 131328      max_pooling2d_1[0][0]            
__________________________________________________________________________________________________
conv2d_5 (Conv2D)               (None, 1, 1500, 256) 262400      conv2d_4[0][0]                   
__________________________________________________________________________________________________
max_pooling2d_2 (MaxPooling2D)  (None, 1, 750, 256)  0           conv2d_5[0][0]                   
__________________________________________________________________________________________________
conv2d_6 (Conv2D)               (None, 1, 750, 512)  524800      max_pooling2d_2[0][0]            
__________________________________________________________________________________________________
conv2d_7 (Conv2D)               (None, 1, 750, 512)  1049088     conv2d_6[0][0]                   
__________________________________________________________________________________________________
dropout (Dropout)               (None, 1, 750, 512)  0           conv2d_7[0][0]                   
__________________________________________________________________________________________________
max_pooling2d_3 (MaxPooling2D)  (None, 1, 375, 512)  0           dropout[0][0]                    
__________________________________________________________________________________________________
conv2d_8 (Conv2D)               (None, 1, 375, 1024) 2098176     max_pooling2d_3[0][0]            
__________________________________________________________________________________________________
conv2d_9 (Conv2D)               (None, 1, 375, 1024) 4195328     conv2d_8[0][0]                   
__________________________________________________________________________________________________
dropout_1 (Dropout)             (None, 1, 375, 1024) 0           conv2d_9[0][0]                   
__________________________________________________________________________________________________
up_sampling2d (UpSampling2D)    (None, 1, 750, 1024) 0           dropout_1[0][0]                  
__________________________________________________________________________________________________
conv2d_10 (Conv2D)              (None, 1, 750, 512)  2097664     up_sampling2d[0][0]              
__________________________________________________________________________________________________
concatenate (Concatenate)       (None, 1, 750, 1024) 0           dropout[0][0]                    
                                                                 conv2d_10[0][0]                  
__________________________________________________________________________________________________
conv2d_11 (Conv2D)              (None, 1, 750, 512)  2097664     concatenate[0][0]                
__________________________________________________________________________________________________
conv2d_12 (Conv2D)              (None, 1, 750, 512)  1049088     conv2d_11[0][0]                  
__________________________________________________________________________________________________
up_sampling2d_1 (UpSampling2D)  (None, 1, 1500, 512) 0           conv2d_12[0][0]                  
__________________________________________________________________________________________________
conv2d_13 (Conv2D)              (None, 1, 1500, 256) 524544      up_sampling2d_1[0][0]            
__________________________________________________________________________________________________
concatenate_1 (Concatenate)     (None, 1, 1500, 512) 0           conv2d_5[0][0]                   
                                                                 conv2d_13[0][0]                  
__________________________________________________________________________________________________
conv2d_14 (Conv2D)              (None, 1, 1500, 256) 524544      concatenate_1[0][0]              
__________________________________________________________________________________________________
conv2d_15 (Conv2D)              (None, 1, 1500, 256) 262400      conv2d_14[0][0]                  
__________________________________________________________________________________________________
up_sampling2d_2 (UpSampling2D)  (None, 1, 3000, 256) 0           conv2d_15[0][0]                  
__________________________________________________________________________________________________
conv2d_16 (Conv2D)              (None, 1, 3000, 128) 131200      up_sampling2d_2[0][0]            
__________________________________________________________________________________________________
concatenate_2 (Concatenate)     (None, 1, 3000, 256) 0           conv2d_3[0][0]                   
                                                                 conv2d_16[0][0]                  
__________________________________________________________________________________________________
conv2d_17 (Conv2D)              (None, 1, 3000, 128) 131200      concatenate_2[0][0]              
__________________________________________________________________________________________________
conv2d_18 (Conv2D)              (None, 1, 3000, 128) 65664       conv2d_17[0][0]                  
__________________________________________________________________________________________________
up_sampling2d_3 (UpSampling2D)  (None, 1, 6000, 128) 0           conv2d_18[0][0]                  
__________________________________________________________________________________________________
conv2d_19 (Conv2D)              (None, 1, 6000, 64)  32832       up_sampling2d_3[0][0]            
__________________________________________________________________________________________________
concatenate_3 (Concatenate)     (None, 1, 6000, 128) 0           conv2d_1[0][0]                   
                                                                 conv2d_19[0][0]                  
__________________________________________________________________________________________________
conv2d_20 (Conv2D)              (None, 1, 6000, 64)  32832       concatenate_3[0][0]              
__________________________________________________________________________________________________
conv2d_21 (Conv2D)              (None, 1, 6000, 64)  16448       conv2d_20[0][0]                  
__________________________________________________________________________________________________
conv2d_22 (Conv2D)              (None, 1, 6000, 2)   514         conv2d_21[0][0]                  
__________________________________________________________________________________________________
flatten (Flatten)               (None, 12000)        0           conv2d_22[0][0]                  
__________________________________________________________________________________________________
dense (Dense)                   (None, 1024)         12289024    flatten[0][0]                    
__________________________________________________________________________________________________
dropout_2 (Dropout)             (None, 1024)         0           dense[0][0]                      
__________________________________________________________________________________________________
dense_1 (Dense)                 (None, 1001)         1026025     dropout_2[0][0]                  
==================================================================================================
Total params: 28,658,603
Trainable params: 28,658,603
Non-trainable params: 0
__________________________________________________________________________________________________
model info save COMPLETE!
Total data number is 101437, Data processing took 0:00:38.
learning rate = 0.001 epoch = 20
…
